submission/cleanRL/checkpoints/MultiGrid-CompetativeRedBlueDoor-v2-DTDE-Red-Single-with-Obsticle__baseline__YourName__a92cc00__1__1694795339/agent.pt (torch, 666341 bytes, 11 tensors)

critic.0.weight f4 [64, 1225]
000000 e8 0b cd bd 69 d3 60 3d 6d 56 de bc 4c cb b4 bd
       -0.100120366 0.054889116 -0.02714082 -0.08827838
000010 10 ae b1 bc f9 8d 86 bd 7a 6c 07 bd 29 42 8f bc
       -0.021689445 -0.06570048 -0.033062436 -0.017487602
000020 07 4b 2d bd 34 3d 60 ba 86 cd ff bb 50 66 d3 bc
       -0.04230788 -0.0008554042 -0.0078064827 -0.025805622
000030 33 7f c5 bc e9 03 d7 bc da c5 b3 bd ed 4e f8 3c
       -0.024108505 -0.026246982 -0.087779716 0.030311072
000040 51 27 65 bc 87 7b 07 bd 1d c7 b5 bc 3c c1 b1 bb
       -0.013986425 -0.03307679 -0.022189671 -0.0054246467
000050 7a 7b 44 bc b4 a9 55 bd d4 c8 5e bd 17 4c 46 3d
       -0.01199233 -0.052163795 -0.054390743 0.04841241
000060 b4 33 01 bb a1 a6 41 bd ac b2 9e bd 0b 0d 9b 3b
       -0.0019714655 -0.04727805 -0.07748923 0.0047317795
000070 3f bc 53 3b 67 de 47 bd 76 80 37 3d 95 3e 1b bd
       0.0032308248 -0.048796084 0.044800244 -0.03790148
000080 85 73 57 bc 5c d2 64 bd dc b7 37 bd 8a fc 91 3c
       -0.013150101 -0.055864677 -0.044853076 0.017820615
000090 fa ce da bc 4a 10 53 3d cb 79 f7 bb 64 bd 99 3d
       -0.026710022 0.051529206 -0.0075523607 0.075068265
0000a0 e3 8c 56 bd af a1 57 3d df b6 07 bd 14 77 8e 3c
       -0.052380454 0.052644428 -0.033133384 0.017390765
0000b0 10 09 37 bd 1b 8b 8f bc 2a 5c 6a bc 01 f4 a5 bd
       -0.044686377 -0.017522385 -0.0143042 -0.08103181
0000c0 c6 fc 88 3d 82 36 3c 3d 6b 7d 0c bd bc 37 64 bb
       0.06688838 0.04595042 -0.034299295 -0.003482326
0000d0 8e 4e 55 3d af f7 c6 3c 3e c4 5e bc 1f 30 3a 3c
       0.05207687 0.024288027 -0.0135965925 0.011364012
0000e0 4a fc 13 bc 99 63 fb 3c e8 a5 d2 bc 0b a4 9c 3c
       -0.009032318 0.03068714 -0.025713876 0.01912119
0000f0 0c 6d 42 bd 71 50 52 bc c6 be 38 bc 13 91 8c bc
       -0.047467276 -0.012836562 -0.011275953 -0.01715902
000100 41 1c 54 3c 47 1d 24 3d bb 7c c7 3c 6c 93 b1 3c
       0.012946189 0.040066984 0.024351468 0.021676742
000110 41 cf 89 bc 3b ae c9 bc cf f4 77 bd c6 f3 b8 bd
       -0.01682246 -0.024619212 -0.060536202 -0.09030871
000120 8c 5e 3a bd 13 6a b1 bc 51 86 b2 3d dc 1c 67 bc
       -0.045500323 -0.021657025 0.08717025 -0.014106002
000130 6a 4e a4 3c cb fa f4 3c 27 0b ae bc 5d b9 9b bd
       0.020056922 0.029904744 -0.021245552 -0.076037146
000140 e3 0d f6 bc 37 bb 04 3d 64 f8 a6 3d df 18 03 bd
       -0.030035919 0.032405104 0.081528455 -0.03200614
000150 94 ea fe bc 0a ae 3c 3d 77 4a 35 bd 1c b0 80 3d
       -0.031117715 0.046064414 -0.04426047 0.0628359
000160 27 b7 0a bd 8b fa 4f 3d 02 b8 44 3d 2b 81 4e bd
       -0.033866074 0.050776046 0.048027046 -0.050416153
000170 cd af c5 3c f2 81 83 3d 75 5f be bb ba e2 c8 3c
       0.02413168 0.064212695 -0.005809719 0.024522174
000180 5e 10 2d bd bd 6f 01 bd 48 10 1c 3d 61 87 b7 bc
       -0.042251937 -0.031600703 0.038101465 -0.02240342
000190 f8 b8 bc bd 5a 58 82 bc b5 d4 83 3d e0 fa 7b 3d
       -0.092149675 -0.01591127 0.06437055 0.06151855
0001a0 40 ad 81 bd 15 9e 87 3b 1e c3 87 3d 2c cd 46 3c
       -0.06331873 0.004138718 0.066290125 0.012133878
0001b0 60 66 0f bd 93 88 a1 bc 29 33 b5 bc 96 ab 30 3d
       -0.03500974 -0.019718444 -0.022119122 0.043132387
0001c0 c6 e8 af 3c 0d 00 94 bd ab e6 8d 3b 5c f4 9a bc
       0.0214733 -0.07226572 0.0043304763 -0.018915348
0001d0 47 77 03 bc 4b b6 5d bd cc 39 74 3d 12 05 e8 3c
       -0.008024043 -0.054128926 0.059625432 0.02832273
0001e0 e8 d0 12 bd 91 8f e5 bb e6 9d 5a bd 00 47 41 bd
       -0.03584376 -0.00700564 -0.05337324 -0.04718685
0001f0 06 49 41 bd cc ed d2 bd b1 c7 7a bd c9 af 8b bc
       -0.04718878 -0.102992624 -0.061225597 -0.017051594
000200 ff 8f 78 3d 41 96 77 bd e2 42 93 3c 51 5f 61 3d
       0.0606842 -0.060446028 0.017976228 0.05502254
000210 2e e6 3b 3c 8b 17 2e bd 6a 6d 81 3d d9 d0 15 3c
       0.011468453 -0.04250292 0.06319697 0.009144031
000220 02 5b e4 3c 50 fb 1f 3d 1e c2 03 3d a1 34 20 bd
       0.027875427 0.03905803 0.032167546 -0.03911269
000230 85 90 7e 3b 5d 65 f0 bc be 5b 29 3c e1 c9 52 3d
       0.0038843465 -0.029345209 0.010336814 0.051462058
000240 40 8c 04 3d 0c f5 7f 3d 3b 03 5b bc 89 fd 7d bc
       0.032360315 0.062489554 -0.013367469 -0.015502342
000250 cb 5d 9b 3d 4d 25 a2 bc e9 38 5b bd ac 12 94 bd
       0.07586249 -0.019793177 -0.05352107 -0.07230124
000260 61 20 8f 3d 98 dc 54 3c 2b fe 58 bd db f0 d4 3c
       0.06988598 0.012992047 -0.05297677 0.025993755
000270 52 fa 8f 3c 58 67 49 bd 36 7e ab bc 0a 16 88 3b
       0.017575417 -0.049170822 -0.020934206 0.004153018
000280 22 ea 84 3d 0d 21 9b bd 40 a9 64 3d 96 1f 89 bc
       0.0648997 -0.07574663 0.055825472 -0.016738694
000290 0d d8 53 bd ab 0f b7 3c c6 7d 1a 3d 7b d8 97 bc
       -0.051719714 0.022346338 0.037717603 -0.018535843
0002a0 8d d8 1f bd 11 0b 83 bc 37 78 4e 3d 5d b8 6a 3c
       -0.03902488 -0.015996488 0.050407615 0.014326182
0002b0 81 0e d2 3c 3f c5 6b bc f3 e7 73 3d ba 6e cb bc
       0.025641682 -0.014390289 0.059547376 -0.024833072
0002c0 10 a1 bf ba ee 79 1c 3c e0 6b 30 bd 51 49 b5 3c
       -0.0014620144 0.009550555 -0.043071628 0.022129687
0002d0 60 1e f8 3a 7c 80 50 bd 9b 10 2e bc 42 ed b3 bd
       0.0018929951 -0.050903782 -0.010624076 -0.08785488
0002e0 a4 d4 5f bc 81 70 21 bd 9a 46 24 3d 6e 98 8d 3d
       -0.013661537 -0.039413933 0.040106393 0.06913839
0002f0 ba 7f 12 3d 4f ba 03 3d 97 80 1c bd e0 4b 2d 3d
       0.03576634 0.0321601 -0.03820857 0.04230869
000300 0b 5f 86 3d 55 76 c4 3c e7 94 81 3c de d3 f0 3c
       0.06561097 0.023982206 0.015818072 0.029397901
000310 22 b9 12 3d db f3 7b bb 57 be e4 3b 25 87 92 3d
       0.035821088 -0.003844491 0.006980698 0.07154683
000320 ac a6 34 3c 44 89 85 3c 24 38 54 3d eb c0 8f 3d
       0.011026066 0.016300805 0.051811352 0.07019218
000330 82 76 bb bc 03 fd 23 3c c1 0c c5 3c 40 42 3e 3c
       -0.022883657 0.010009053 0.024053933 0.011612475
000340 e4 98 41 3b 83 09 6c bd 21 2f 54 bd 90 a4 71 bd
       0.0029540593 -0.05762626 -0.051802758 -0.05899483
000350 5b 4c fa bc 0a 25 91 bc 06 75 31 bb b1 c4 a6 3b
       -0.030553987 -0.017717857 -0.0027077808 0.0050893654
000360 59 e9 5a 3d ab 7b 84 3c 91 9d 4b 3d ae ec b0 bd
       0.053445194 0.01617225 0.049710814 -0.08638893
000370 47 e0 e7 bb ce 7f 97 3c 9f 59 95 3d 76 9d 86 bb
       -0.0070762965 0.01849356 0.072924845 -0.0041081263
000380 d7 fe 74 3c 48 96 88 bd 06 fc 87 bd 14 81 e8 3b
       0.014953337 -0.06669289 -0.066398665 0.0070954654
000390 71 b1 ff bc 71 27 4b bc a6 69 e6 bd 44 0c 08 bc
       -0.03121254 -0.01239954 -0.112506196 -0.008303706
0003a0 30 43 a8 3b 05 ed be bb 0d 62 98 bc b9 c6 e8 bb
       0.0051349625 -0.005826595 -0.018601442 -0.0071037677
0003b0 f7 ba ac bc ac 34 a6 3c 58 c4 78 bd 9c ac 3e bd
       -0.021085246 0.020288788 -0.060734123 -0.046551332
0003c0 0a 14 01 3d 7d 69 50 3b 04 b3 0f bd bb d9 55 3d
       0.03151325 0.0031801157 -0.035082832 0.052209597
0003d0 36 3b 1b bd 20 51 c2 3c 05 fc c1 bb af 05 05 ba
       -0.037898265 0.023720324 -0.0059199356 -0.0005074394
0003e0 a5 0d b8 bd 78 e4 13 bd 19 d6 f7 3c a3 8f 12 3d
       -0.089869775 -0.036106557 0.030253457 0.035781514
0003f0 86 fe 3d 3c 0a 74 94 3d 46 b6 be bc 4f 62 58 bc
       0.011596328 0.07248695 -0.023280274 -0.013207032

critic.0.bias f4 [64]
000000 56 9d a8 3b ea c6 fb bb 16 55 94 ba 42 4b ad 3b
       0.005145709 -0.0076836245 -0.0011316861 0.0052885124
000010 8b 49 66 bc f0 00 b8 3b f2 5c 96 bc 3e 23 df 3b
       -0.01405562 0.005615346 -0.018354867 0.006809621
000020 7c d2 8e 3a f4 3a 04 3a b8 f4 b7 bb 14 46 48 bb
       0.001089647 0.0005044185 -0.0056138895 -0.0030559348
000030 39 e0 b2 3a 27 fd 6e bb 38 ae ea 3b aa b3 27 bc
       0.0013647146 -0.0036466809 0.007161882 -0.010235706
000040 a1 7d 23 3c 4d ba cd 3b d4 3b 8b 3b 26 c4 01 3c
       0.009978683 0.0062783123 0.0042490754 0.007920301
000050 91 a7 db b8 4a 22 84 3a ad ca 3f bb ab 00 b0 3a
       -0.000104739454 0.001008102 -0.0029265091 0.0013427933
000060 81 d3 9c bb 55 18 9c bb 94 30 a7 ba 04 9a 3f bc
       -0.0047859554 -0.004763643 -0.0012755566 -0.011694435
000070 19 e7 3b 3c 8d 5d d5 ba 31 fb 9d 3a aa 91 4d 3c
       0.011468672 -0.0016278491 0.001205301 0.012546936
000080 4b a8 4e bb eb c0 1d 3b 29 17 5f bc d3 76 0c bb
       -0.0031533416 0.0024071287 -0.013616362 -0.002143313
000090 65 a5 fb 3a 1e 54 90 3b da ba c3 3b f8 c1 b8 ba
       0.0019199072 0.004404559 0.005973202 -0.0014095893
0000a0 47 43 0d 3b d7 73 d2 39 7d 62 b3 ba e9 0c 95 39
       0.0021554993 0.0004014063 -0.0013685968 0.00028429113
0000b0 f7 13 89 bb 56 2d a5 3a 05 2d f8 bb f6 8c 2b 3b
       -0.004183288 0.0012602012 -0.007573726 0.0026176549
0000c0 72 ea 74 3b 76 09 87 3b d1 36 c5 bb f9 03 16 bb
       0.0037371186 0.004121001 -0.0060184975 -0.0022890551
0000d0 8e b0 7b 39 08 10 07 3c 37 46 c5 3b 16 66 3a 3a
       0.00024002997 0.008243568 0.006020333 0.0007110549
0000e0 57 ff be bb b5 af f3 bb b7 5f e3 3b 96 ca 3d 3c
       -0.0058287787 -0.0074367174 0.0069389003 0.011583945
0000f0 53 bd 28 bb 2e 67 d8 3b 77 4c 2c 3b 29 4a b2 39
       -0.0025747612 0.006604097 0.0026290694 0.0003400606

critic.2.weight f4 [64, 64]
000000 61 00 8b 3d 33 19 df bd 70 78 3d bb 74 f9 d1 bb
       0.06787182 -0.10893478 -0.0028910898 -0.006407911
000010 ba 6f 6c 3e 13 21 c9 3d 64 ef 97 3e 73 38 c9 bd
       0.23089495 0.098207615 0.29674828 -0.0982522
000020 b7 3b c3 bd d1 fc 44 3d 82 47 b6 3d 2d d4 2e 3e
       -0.09532874 0.048092667 0.08900358 0.17073126
000030 4f db 53 bd 30 6b ff 3d 4d d3 a4 3d a2 47 7d 3d
       -0.05172282 0.12471616 0.08048115 0.061835892
000040 92 6c d1 3d e1 8a 72 3e 09 17 df bd c3 c8 09 bf
       0.10225786 0.2368579 -0.108930655 -0.53821963
000050 1c 9a ce 3d 16 12 5c bd 31 9e d8 bc 2a 39 49 3c
       0.10087988 -0.053728186 -0.026442619 0.012281695
000060 de 04 04 3e 75 15 9d bd b6 98 b1 3e d3 75 34 3e
       0.12892482 -0.07670108 0.34686822 0.17623071
000070 e6 0c df bd 9a 88 10 be c9 16 1a 3d ff c8 9f 3d
       -0.10891132 -0.1411461 0.037619386 0.07802009
000080 ed cb bd 3d ae a6 cb bd 9c cb c5 bd 1c b5 9c bb
       0.092674114 -0.09943901 -0.09657976 -0.004782332
000090 ad 28 64 3e b2 88 76 be 5b 60 57 3c 91 81 2b be
       0.22281142 -0.24075583 0.0131455315 -0.16748644
0000a0 5c dc 80 bd 44 3b 32 bd d5 b9 a0 3e 0d 21 65 3b
       -0.0629203 -0.04351355 0.3139178 0.0034962327
0000b0 e7 b2 8b be dc bb 75 3d 11 08 32 be 50 39 70 bc
       -0.2728493 0.05999361 -0.1738589 -0.014662102
0000c0 48 c8 06 3c 6c c4 fb be d0 27 cd 3e 36 71 ba 3d
       0.008226462 -0.49173295 0.40069437 0.091036245
0000d0 74 cd 85 bc c7 21 62 bd 94 36 86 3d 0d 8b 7f bd
       -0.01633332 -0.055207994 0.06553379 -0.06238847
0000e0 c9 40 01 3e 9b 2b 16 3e 10 a7 9c be 0a 05 5b 3e
       0.1262237 0.14665072 -0.3059621 0.21388641
0000f0 a2 1c 7b 3d 4c 25 88 3e ba c4 c7 3e 54 ed 67 3e
       0.061306603 0.26590955 0.39017278 0.22649127
000100 ad f1 a6 3c 6e a8 d7 be 41 f1 fe bd 0f 5f f9 3e
       0.020378912 -0.4212069 -0.12448359 0.48705336
000110 48 cd 8d be 8f c0 17 3c 96 a0 17 3e 46 08 9f bd
       -0.2769568 0.009262218 0.14807352 -0.0776525
000120 20 fe 37 bd 08 3b 66 3e 87 ef ad bd 5e 45 9f 3e
       -0.044920087 0.22483456 -0.08492952 0.3110761
000130 0d 41 b4 3d 8e ae 8e 3e 77 49 91 3c b0 38 6b 3d
       0.0880147 0.2786755 0.017735226 0.05742711
000140 73 c5 28 be 2c 0f 98 3e 6a de a4 3d e3 54 b9 3e
       -0.16481571 0.29699075 0.080502346 0.36197576
000150 97 61 95 bd f5 0f 26 3e 77 1b 63 bd 74 2c 15 be
       -0.072940044 0.16217025 -0.055446114 -0.14567739
000160 fd 37 82 be 86 bd 49 bd e9 40 94 be de b1 47 bd
       -0.2543334 -0.04925301 -0.28955773 -0.04875361
000170 38 ee c4 bd 5c c3 98 3d d4 8e 3b 3d d3 7d 29 3d
       -0.09615749 0.07459137 0.04579051 0.04137976
000180 42 d0 05 be 1f 4f a2 3d c1 5d df bd 60 53 44 3d
       -0.13067725 0.079252474 -0.10906554 0.047931075
000190 9e 81 51 bc c7 09 c0 bd e9 04 a4 3d ba 1e ef bd
       -0.012787251 -0.09376865 0.08008749 -0.116757825
0001a0 2a 26 ab bc c5 35 93 be 75 4c da 3d 21 ae 42 3d
       -0.020892221 -0.2875196 0.10659114 0.047529344
0001b0 06 88 94 3c f1 e8 d2 bd ef 8b d2 3d 02 f7 09 3e
       0.018131267 -0.10298336 0.102805965 0.13473132
0001c0 48 d4 1a bd 5b 5f 87 be d6 76 82 3c 8b 0d 03 3b
       -0.037800103 -0.26439938 0.015925806 0.0019997086
0001d0 4e e6 91 3e bb f4 02 3d 99 49 5a 3e 08 bf c6 be
       0.2849602 0.031971674 0.21317138 -0.3881762
0001e0 1c 08 e5 bc 88 d1 a0 3e 64 cc 8c bd d5 87 ff bb
       -0.027957968 0.3140986 -0.06874922 -0.007798175
0001f0 c1 ee 67 3d b7 b9 4f be 48 e0 82 bd 44 7a 65 be
       0.056624178 -0.20285688 -0.063904345 -0.22409922
000200 8b 3a 26 bd ea 4c f6 3d 64 c0 8f bd 4f 91 f6 3b
       -0.040583175 0.12026389 -0.070191175 0.0075246464
000210 51 09 25 3d d5 a7 bc bd 6e 8d 7c 3c a9 49 2e 3e
       0.040292088 -0.09211699 0.015414579 0.17020287
000220 23 89 92 bd 57 b3 06 3e 6d b2 d0 bd 60 dd 08 bf
       -0.07155063 0.1315435 -0.10190282 -0.5346279
000230 a2 99 50 3e fd 2a 64 be f9 88 da bc 74 88 99 bd
       0.20371106 -0.22282024 -0.026676642 -0.074967295
000240 4c e8 83 be 6f 05 81 bd d9 62 ad 3d 91 af ad be
       -0.25763166 -0.062998645 0.08466119 -0.3392301
000250 14 8e 77 3e 22 32 c9 be ac a8 cc bc 09 88 95 bc
       0.24175292 -0.3929606 -0.024982773 -0.018253343
000260 68 e9 35 bd 41 86 99 3d f5 19 25 bc da c6 72 be
       -0.044412047 0.0749631 -0.010076989 -0.23708668
000270 d4 81 8a be 70 a7 9a 3d 8e 63 00 3e 26 7b 88 3e
       -0.27052176 0.075514674 0.12537977 0.26656455
000280 4f ef c1 bd 60 fe cd bd fa 1b 0c bd 1f f7 1a 3c
       -0.094694726 -0.10058284 -0.034206368 0.009458332
000290 74 b4 6f 3c 1e 02 81 3e 32 42 ad 3d 6e 2c fd ba
       0.014630426 0.25196928 0.084598914 -0.0019315609
0002a0 34 45 96 bd fa cb 0a be 68 dd d8 bd b8 ee 8a bc
       -0.07337418 -0.13554373 -0.10589105 -0.016959533
0002b0 3e db 86 bd 6c 94 15 be 11 38 87 be 8e 19 d1 3e
       -0.06584786 -0.146074 -0.26409963 0.4083981
0002c0 56 f1 51 bc b7 5c 7c be b8 80 04 3d 64 cb 5e be
       -0.012813887 -0.24644743 0.03234932 -0.21757275
0002d0 7e 03 57 3e 2e bb c9 bd 9d d8 a8 be 1d 69 2f be
       0.20997426 -0.09850155 -0.32977763 -0.17129941
0002e0 24 da b0 be 31 35 3f 3e 88 ea 55 be f6 ab f7 3c
       -0.34541428 0.18672635 -0.20890248 0.030233365
0002f0 2f 59 a9 3d 62 01 80 bd 21 0e 4a be 2d 8c 12 be
       0.082689635 -0.06250264 -0.19731952 -0.14311285
000300 e1 1b 15 be 3c 86 ff 3d 37 d7 eb 3d 4b 39 80 3d
       -0.14561416 0.12476775 0.11515658 0.06260928
000310 65 71 60 be 51 11 1f 3e 5e 89 9a be 9e fe 4b 3e
       -0.21918257 0.1553395 -0.30182928 0.19921347
000320 5b 89 6d 3e 23 14 b6 3d fc a4 15 bc f1 f7 bd 3c
       0.23196928 0.088905595 -0.009133574 0.023189517
000330 41 62 bb 3b 2d e3 03 3f 7c 4c 91 bd 4e 0c 72 be
       0.0057185 0.5151852 -0.07094666 -0.23637506
000340 f1 a0 42 3d 86 c0 66 bd 88 6b df 3c f5 e2 95 3c
       0.047516767 -0.05633595 0.027272955 0.018296698
000350 3f 67 22 3e b5 43 1e 3e 5d a8 d3 be d2 8b 9c 3d
       0.15859698 0.15455516 -0.41339388 0.07643856
000360 22 7e b2 bd 32 23 62 bd 59 72 31 be 8c e4 60 be
       -0.08715464 -0.055209346 -0.17328776 -0.21962184
000370 a0 ac 12 be 05 cc a2 be 88 d5 64 be c6 81 79 3c
       -0.14323664 -0.3179628 -0.2234708 0.015228694
000380 33 c2 b8 be e8 5c d0 be 74 5a 87 3d c0 11 3a be
       -0.36085662 -0.40695882 0.066090494 -0.18170834
000390 f0 96 fc bd 3c d4 df 3d 8f 1e 51 be 75 90 78 3c
       -0.123334765 0.10929152 -0.20421813 0.01517116
0003a0 4f 1d 94 3d 10 e4 22 bc 22 b2 10 be d5 9d ff 3c
       0.07232153 -0.00994207 -0.14130452 0.03120319
0003b0 46 83 87 bc af 2a e6 3d 09 7c 93 be f8 da 03 be
       -0.016542088 0.1123861 -0.2880557 -0.12876499
0003c0 41 bc 7a be 8a 7b f2 bd 96 6d ad 3d 0a 63 de 3d
       -0.24485876 -0.118399695 0.084681675 0.10858734
0003d0 ef 62 9d be 22 a3 cf bd d5 39 5e 3e 24 b0 b8 bc
       -0.30739543 -0.10138537 0.21701749 -0.022544928
0003e0 ca 70 ba bd 8b 19 55 be 42 2c cf be 62 c1 01 3d
       -0.09103544 -0.20810525 -0.40463454 0.031678565
0003f0 c8 1e af be e7 11 0c 3e 1a 10 e6 bd fc 94 32 3d
       -0.34203172 0.13678704 -0.1123354 0.043599114

critic.2.bias f4 [64]
000000 da 6f 0c ba ce 5f 68 3c 4e 7d 13 3c 84 0d 78 3c
       -0.00053572434 0.014182998 0.009002043 0.015139941
000010 7f 70 44 3b 66 d6 b2 3b f3 b5 0f 3a 95 c7 8c bc
       0.002997428 0.005457687 0.00054821296 -0.017185012
000020 a6 bc 44 bc 4a 13 af 3b 88 bb 19 bc a4 e0 cf 3a
       -0.012007868 0.0053428756 -0.00938309 0.0015859795
000030 71 c7 8b 3b 13 ee 27 bc 17 34 a8 bb 96 55 70 ba
       0.0042657186 -0.010249632 -0.0051331627 -0.0009168027
000040 16 8b 26 bc b1 fa 4d 3b 00 6c 5a 3c 48 fc 20 bc
       -0.010164997 0.0031429941 0.013331413 -0.009825774
000050 a3 84 b7 3b 3a f1 94 ba f4 8b 8c bc f0 52 9f 3c
       0.0056005283 -0.0011363395 -0.017156579 0.019448727
000060 45 22 d4 3b ea df f3 ba c4 19 9f bb 73 90 ef 3b
       0.006473812 -0.001860616 -0.0048553664 0.007310921
000070 77 1e d3 ba 61 09 c6 bb 13 ab 28 3b 9f 6e 85 3b
       -0.0016107102 -0.0060435985 0.0025736734 0.004072025
000080 4e f9 a2 3b b4 76 98 39 ac 8a fd 39 1e 36 31 3c
       0.004973567 0.0002908014 0.0004835924 0.010816125
000090 2a 69 c3 bb b1 59 68 bc 0f 20 83 bc c2 6e 90 bc
       -0.0059634643 -0.01418154 -0.016006498 -0.017630938
0000a0 77 33 ab 3b ad 81 a6 b9 f2 6d b9 3b 46 23 2a bc
       0.005224641 -0.00031758603 0.0056588585 -0.010384386
0000b0 b9 29 92 3c 56 81 cb 3c a0 ec db ba 9c 80 cf ba
       0.01784216 0.024841946 -0.0016778894 -0.0015831175
0000c0 2f 53 27 3b e6 14 be bb ea a8 9a bb f3 2d 61 bb
       0.002553176 -0.005800831 -0.004719843 -0.0034359663
0000d0 7c ce f4 bb 39 61 8e 3b 0d 76 4c ba 4b 87 54 bc
       -0.007470904 0.004345086 -0.00077995734 -0.0129717095
0000e0 7d 5b 56 3b e5 88 30 3b 07 64 e8 3b f3 42 35 ba
       0.003270834 0.0026937064 0.0070920023 -0.0006914578
0000f0 e7 a1 9d bc a6 a0 23 bb c5 73 27 3b 38 61 2b 3c
       -0.01924224 -0.002496758 0.0025551182 0.0104601905

critic.4.weight f4 [1, 64]
000000 f3 19 59 3d 21 b5 95 3d 89 cf 0a 3d 28 98 eb 3d
       0.053003263 0.07309938 0.033889327 0.11503631
000010 96 fb 77 bc cf 0c 2a 3e d5 64 e9 bd 24 e3 fb bd
       -0.015135666 0.16606449 -0.11396185 -0.12299183
000020 6b de d3 bd 76 0e a5 be 66 f4 2b be b7 76 03 3e
       -0.10345157 -0.32237595 -0.1679245 0.12838255
000030 7d f3 a2 bd c8 68 fa bd 37 df fc bd a2 7f 54 bc
       -0.07956598 -0.12227017 -0.12347262 -0.012969883
000040 ea 90 4a bd 1b 76 de 3d ef 6c 73 be 36 f5 d5 bd
       -0.049454607 0.108623706 -0.23772024 -0.10447161
000050 84 45 dc 3c 1e a7 0a 3c d1 36 8e bd eb a3 0a 3e
       0.026888616 0.008462695 -0.06944049 0.13539092
000060 db 39 89 3d c1 0d 38 bc 8c c5 a7 bc ca 8d 15 3d
       0.06700488 -0.011233748 -0.02047994 0.036512174
000070 44 a9 9a 3c 9f 81 1e bd d1 51 08 3d cf d6 33 be
       0.01887954 -0.038697835 0.03328115 -0.17562412
000080 41 62 f3 bd c3 21 85 3e d2 df 52 3e 2c 6e af 3c
       -0.11883975 0.2600232 0.20593193 0.021414839
000090 a7 0a 66 bd 46 62 06 be 29 41 67 3e 35 36 d9 bd
       -0.056162503 -0.13123426 0.2258345 -0.10606042
0000a0 47 5c e9 3d 69 94 21 3d e2 aa 88 bd f3 90 2b bd
       0.11394554 0.039448176 -0.06673218 -0.04188628
0000b0 f8 44 09 3e c2 a1 02 3e f1 29 8b bd 4b e9 ad bb
       0.13405216 0.12757018 -0.06795109 -0.0053073517
0000c0 7b 3d 27 3e d0 f9 55 bd 4e 66 33 3e 18 fc 31 3c
       0.16332047 -0.052240193 0.17519495 0.0108633265
0000d0 66 7a 3c be 80 53 33 bd ef 36 1c 3e dc ea 43 3c
       -0.18406066 -0.043780804 0.1525533 0.01195785
0000e0 34 6b 80 3e 6c 36 05 3c a6 4b a1 3d fd d1 a7 be
       0.2508179 0.008130651 0.07875757 -0.32777396
0000f0 eb ca e4 bd f2 51 04 3e c7 61 0b be 6e 70 26 3e
       -0.11171516 0.12921885 -0.13611518 0.16253826

actor.0.weight f4 [64, 1225]
000000 3f c1 44 bc 64 37 c1 bd 24 16 8b 3c 1a 46 19 3d
       -0.012008964 -0.09434393 0.01697833 0.03742037
000010 cb 3a 93 3c ff f8 95 bc c7 46 3f 3b 75 8d f8 3c
       0.01797237 -0.018307207 0.0029186474 0.03034089
000020 63 20 c7 3b b7 45 aa bc 12 74 62 bc 53 ac 1b bd
       0.006076859 -0.020785196 -0.013821619 -0.038006138
000030 2c 1d ac 3b 26 b7 56 ba aa f7 4d 3d b0 c6 19 3c
       0.005252501 -0.00081907434 0.05028502 0.00938575
000040 ff 85 4b 3d 19 df 06 bc 18 76 d0 bc 02 c1 3e bc
       0.049688336 -0.008231902 -0.025446936 -0.011642696
000050 2e d2 0a 3b 60 1a 80 bc 43 52 b3 bc d2 3b 29 bd
       0.0021182406 -0.015637577 -0.021889811 -0.041316815
000060 d1 77 a2 bd 4e 52 1b bd 45 7c 47 bd 78 a9 84 bb
       -0.079330094 -0.03792029 -0.048702497 -0.0040485226
000070 6c b5 17 3d 66 9f e6 bc 0d 17 47 3d d8 97 fc bd
       0.03703825 -0.028152179 0.048605967 -0.123336494
000080 f0 1e 1a bd 14 fd 31 3d 49 b1 5d bc 35 8e cf 3d
       -0.03762716 0.043454245 -0.013531038 0.10134546
000090 36 f0 b0 bc ab 4d ce 3d 49 76 5b bd 39 95 22 3d
       -0.021598917 0.10073408 -0.053579602 0.03969309
0000a0 14 af c0 3c 11 bc 23 3d 10 17 da bc c9 58 22 bd
       0.023520984 0.039974276 -0.026622325 -0.039635453
0000b0 f3 b6 f8 bb 4c e6 3a 3d 60 21 ed 3c 9f 2e e3 bc
       -0.0075901686 0.045629784 0.028946579 -0.027732192
0000c0 8b 3a 26 bd 3f 51 39 bd 0f a8 46 bc 21 43 ae 3c
       -0.040583175 -0.045243498 -0.012125029 0.021272244
0000d0 bb d1 d9 3b c1 19 ce bb 5b d4 10 bd fa 45 b5 3d
       0.0066473163 -0.006289691 -0.035358768 0.088512376
0000e0 b9 74 28 3c 8f 70 bb 3b 2a e9 0b bc 5a f5 a7 bd
       0.010281735 0.005720205 -0.008539477 -0.08201094
0000f0 b0 e3 05 3d 67 ee a9 3c 86 76 3f bd c6 a6 47 bd
       0.032687843 0.020743562 -0.046743892 -0.048743032
000100 c7 35 a9 3c fe bf 8d 3b bb ba ee 3c 17 55 e3 3b
       0.020655526 0.004325866 0.029141774 0.0069376337
000110 89 86 9f bc 2d b5 97 bb da 7a 8b bc a9 26 85 3c
       -0.019473331 -0.004629752 -0.017026354 0.016253786
000120 53 3d 99 bc bd 2b bd 3c f3 54 bf bc 7e bc 21 3d
       -0.018706 0.023092145 -0.023355937 0.0394864
000130 f8 3d ae 3c b1 3b 27 bd 82 e8 55 3c 2a d2 15 3c
       0.021269783 -0.04082841 0.013055922 0.009144345
000140 b5 58 1a bd 02 fb fb 3c 3b 69 95 3d 11 92 44 bc
       -0.037682254 0.030759338 0.07295462 -0.011997716
000150 de d4 3c ba 4a 31 fc 3c d3 b2 69 3c e1 c7 80 3c
       -0.00072033505 0.030785222 0.014263826 0.01572031
000160 81 fe 5f 3d e4 ea 35 bd e6 36 b6 bc b9 3c 84 bd
       0.054686073 -0.044413462 -0.022242974 -0.064568944
000170 90 3d 8a 3b 48 29 94 bd 5e 04 a9 3c 4f f3 d2 bd
       0.0042187646 -0.07234436 0.020631965 -0.10300314
000180 88 0c b1 3b 87 f6 c9 3b c7 22 1f bc 5b ac 6b bc
       0.005403105 0.0061634216 -0.009712881 -0.014384354
000190 48 ca 86 3c fb d2 8b 3d 62 9b 99 bc df 57 1c bd
       0.016453877 0.06827351 -0.01875085 -0.038169738
0001a0 f2 4e c7 bd fa 10 71 bd a9 21 01 bd cd 98 4a bc
       -0.097318545 -0.05885408 -0.03152624 -0.012365532
0001b0 19 cb 2a bd 81 d8 c6 bc 8c d3 4b 3d 5d 16 01 bd
       -0.041697595 -0.024273159 0.049762294 -0.031515468
0001c0 8c 32 ab bd fb ee 2e 3d 48 d7 83 bd aa b0 0e 3d
       -0.083592504 0.04270838 -0.06437546 0.03483645
0001d0 78 65 4c bd 2f 67 21 3d 92 ed f5 bc 9f b8 16 3c
       -0.049901456 0.039405044 -0.030020509 0.009199291
0001e0 72 bf 38 bd 66 2e b9 bc 0a b5 3e bd 08 5a e1 3c
       -0.04510445 -0.022605132 -0.04655937 0.02750875
0001f0 cc b5 86 bc 98 a7 9b 3c 8d 10 d0 3d 57 8b 34 bd
       -0.01644411 0.019000813 0.10159407 -0.044078197
000200 97 33 32 3d 1d b4 59 3d 2c 52 81 bd a4 c4 de bc
       0.04350623 0.053150285 -0.06314501 -0.027193375
000210 37 a0 47 bd 59 11 00 3d cd 89 21 bd aa 34 9f bd
       -0.048736777 0.031266544 -0.039438058 -0.07773717
000220 29 79 bf 3c 8c a1 6f bd 38 d7 e8 3d 84 25 8c 3c
       0.023373203 -0.058503672 0.11369175 0.017107733
000230 9c 87 99 bd 01 9c 41 bd 22 66 ac bc d1 2d ed bb
       -0.074965686 -0.047267918 -0.021044794 -0.0072381278
000240 7e 58 0b be 95 21 4f 3d 98 ec c6 bd 2d 83 f8 3c
       -0.13607976 0.050569136 -0.097130954 0.030335987
000250 77 f7 81 3d 29 b7 3b 3d b5 81 01 bd 45 17 16 bd
       0.06346028 0.045828972 -0.03161784 -0.036643285
000260 4d 2d 05 3d 4d f8 b9 bc 32 00 d4 bb b1 72 a8 3a
       0.032513905 -0.022701407 -0.00646975 0.0012851564
000270 91 ba 3b bd 96 d4 b4 bc c8 e2 47 bd a7 71 75 3d
       -0.04583222 -0.022074025 -0.04880026 0.05992284
000280 23 6a 76 3a 9e eb 62 3c fc ab e3 bc 87 b9 d1 3c
       0.0009399971 0.013850121 -0.02779197 0.025601162
000290 ac 4e bd 3c 79 b3 e6 3c 75 43 02 bd 04 83 76 bc
       0.023108803 0.028161751 -0.031802613 -0.015045885
0002a0 8e ed a9 3d 8f d0 49 bb 26 eb da bc 59 a5 e7 3b
       0.08297263 -0.0030794477 -0.026723456 0.0070692715
0002b0 79 1b 34 bd 2a 77 49 bd c0 7f 60 bc de 31 86 bc
       -0.043971512 -0.04918591 -0.013702333 -0.0163812
0002c0 ff de c6 bd 6f 79 26 bd 56 bd 63 3d d0 0b 9a bd
       -0.09710502 -0.04064315 0.055600487 -0.07521784
0002d0 ab 4f 3a bc 41 0f 41 bd 12 68 d8 bd 97 e1 a1 bc
       -0.011371533 -0.047133688 -0.10566725 -0.01976089
0002e0 e4 ad a9 bd c1 74 35 3b 92 6d 4d bd 82 57 56 bc
       -0.0828512 0.0027688 -0.050153323 -0.013082387
0002f0 25 e0 bd 3c d8 94 6d 3d 49 79 cb 3c ac be bd 3c
       0.02317817 0.058003277 0.024838107 0.023162208
000300 11 22 14 3c 2f ec e6 bc 0b 7d 1c bc fd 74 ad bc
       0.009041325 -0.028188793 -0.009551297 -0.021173948
000310 e2 5a 99 bc 22 61 cf 3b 6b 3e 42 3c 02 c8 93 3d
       -0.018720094 0.006328718 0.011855702 0.07215883
000320 b4 43 40 bd 36 68 23 bc 19 a8 01 3d 3a 82 5a 3d
       -0.046939567 -0.009973576 0.03165445 0.05334685
000330 9f 9d c4 3c 0a 3b 78 bc 9c f6 5b bc 1c 9f 02 bd
       0.02400094 -0.015150795 -0.0134254955 -0.03189002
000340 1d f6 36 bb 45 c7 8c 3d c1 d4 07 3b 8a 4f b5 3c
       -0.002791769 0.06873945 0.0020726176 0.022132654
000350 50 82 32 ba c9 f5 a1 bd 30 15 88 3c 24 2b 8e bc
       -0.0006809579 -0.07908208 0.016611665 -0.017354555
000360 c4 62 70 bb cb 66 9e 3c 64 f2 21 bd 31 0a 39 bc
       -0.0036679963 0.019336125 -0.039537802 -0.011293934
000370 26 9e 4a 3c 7f d8 80 bc 43 87 18 bd d7 c5 39 3d
       0.012366807 -0.015728233 -0.03723837 0.04535469
000380 31 a6 08 3b 44 b9 80 bd 07 d5 33 bc 2c 6d 3d bc
       0.002085101 -0.062853366 -0.010976083 -0.011561673
000390 85 48 39 3d e2 7d 67 bb 2c 4e f2 bc e9 d8 af 3c
       0.045235176 -0.0035322835 -0.02957829 0.021465736
0003a0 23 ca 10 3d d8 35 ae bc 80 7e 94 bd c4 23 4d 3d
       0.035349023 -0.02126591 -0.072506905 0.050082937
0003b0 b0 69 1c bd 8d 72 92 bd d3 3c 19 bd a8 9b 25 3c
       -0.03818673 -0.07150755 -0.037411522 0.010107912
0003c0 a2 1b 71 bd 30 cd 64 3d af d9 74 bb 49 90 86 bd
       -0.058864243 0.055859745 -0.0037361195 -0.06570489
0003d0 1f 3d 10 bd 83 6a 0d 3d 3e 95 22 bd e1 2d 71 bc
       -0.03521454 0.034525406 -0.03969311 -0.014720411
0003e0 c7 08 61 bc 00 c0 83 3d ac 1a ec 3d 01 b0 08 bd
       -0.013735003 0.064331055 0.11528525 -0.033370975
0003f0 c1 a1 98 3d 90 00 57 3b 30 e7 d9 3c 88 58 dc 3c
       0.07452727 0.0032806732 0.026599497 0.026897684

actor.0.bias f4 [64]
000000 ce e7 70 bc 66 de 36 3c e8 f6 38 3c b9 a9 57 bc
       -0.014703704 0.011161422 0.011289336 -0.013163024
000010 b1 90 0b 3c d5 a5 b9 3b 82 d0 54 bc 5b dc d3 3b
       0.008518384 0.0056655207 -0.012989165 0.0064654774
000020 fe e2 6a bb 2a 72 57 3c 21 8e 5d bc 74 48 b7 3c
       -0.0035840864 0.013149777 -0.013522656 0.022373416
000030 c0 83 b5 bc a4 50 bf bb 44 ca 78 3c 2e 7a e9 bb
       -0.02215755 -0.0058384705 0.015184943 -0.0071251607
000040 96 84 44 bc 4f 4e 1b 3b a3 f0 07 3c df db 57 bb
       -0.011994502 0.0023697799 0.008297118 -0.003293745
000050 97 cd f5 3b 30 98 ac 3b a7 47 0a 3c 40 a0 f5 bb
       0.007501315 0.0052671656 0.008439935 -0.00749591
000060 d8 80 53 3c 37 8d 96 ba 95 b9 c5 3c da 82 87 3c
       0.012909137 -0.0011486177 0.024136344 0.016541887
000070 6d 54 8f bb 64 5c c6 ba 6b 5c 2a 3c ec 6c a9 bc
       -0.004374078 -0.0015133736 0.010398011 -0.02068182
000080 4d 8d c3 3c f2 04 ab 3c 59 08 9a 39 fc de 2d 3c
       0.023871088 0.020876382 0.00029379388 0.010612246
000090 15 8e 2f 3c a5 50 71 bb 4c 31 bf ba c4 fb fc bb
       0.010715027 -0.003682175 -0.0014586835 -0.0077204425
0000a0 1a 7d 35 3c fe f1 73 bb 7d 47 44 bc 9e bf 47 bc
       0.01107719 -0.0037223096 -0.011979935 -0.012191681
0000b0 1e 5b 32 bc 4d 05 2e bc 87 11 6a 3b 2b f3 9e 3b
       -0.010885982 -0.010621381 0.0035716014 0.004850765
0000c0 67 d9 71 ba ed 9c 8d bc ab 0b bd 3c 1b 0f 0f 3c
       -0.0009225816 -0.017286742 0.023076853 0.008731629
0000d0 f5 67 00 bb 9b 22 ac bb df 69 48 3c 5c 5a ea 37
       -0.0019593213 -0.0052531487 0.012232273 2.793705e-05
0000e0 40 29 a6 3c cc 82 c9 3a 07 b7 07 3c 25 73 f2 bb
       0.020283341 0.0015374064 0.008283383 -0.00739898
0000f0 3d 68 49 bc b2 85 15 3b c0 c0 52 3c 27 db 46 3b
       -0.012292919 0.0022815284 0.012863338 0.0030343027

actor.2.weight f4 [64, 64]
000000 7c ed e0 3d ae 83 67 bd 6a 36 66 3e cd e1 50 be
       0.109827965 -0.056522064 0.22481695 -0.20398636
000010 d7 66 bc be 8d 81 83 bb 01 87 80 bd 5a 25 01 be
       -0.3679721 -0.0040132464 -0.0627575 -0.12611905
000020 db 8f 3f be 0e bc cb bd cc 61 03 3e 69 27 92 3e
       -0.1870722 -0.09947978 0.12830275 0.28545693
000030 15 ba 42 3d f4 1e b5 be 3e d8 2d 3e 66 de 73 be
       0.047540743 -0.35375178 0.16977021 -0.23815307
000040 d9 ad b3 be 75 02 8a be 99 0b 75 bd 6c 78 d2 3c
       -0.35093573 -0.26955 -0.059825514 0.025692187
000050 1a cd ab 3e 86 13 e7 3d 52 0f 1a 3e fa 62 e7 bd
       0.33554918 0.11283021 0.15044907 -0.11298175
000060 a1 68 55 3e c7 9c bc 3e ff d5 df bd 8f 56 aa 3e
       0.20840694 0.36838362 -0.109294884 0.33269164
000070 8c 71 86 bd 96 84 de bc 48 5d b8 bd eb 37 a0 3d
       -0.06564626 -0.027162831 -0.09002167 0.078231655
000080 7f db 26 3d 2a 76 06 3d a5 6d da be b6 8b 82 bc
       0.04073667 0.032827534 -0.42661777 -0.01593576
000090 58 8c b3 bd 6e ee 21 be be 42 1d 3f 6c b7 a9 bd
       -0.08767003 -0.1581361 0.61429965 -0.08286938
0000a0 55 57 c8 3c ea 4f dc bc 52 1f 80 3c 06 d8 8c 3e
       0.024455706 -0.026893575 0.015639935 0.27508563
0000b0 ce fc 9c 3e 17 cf 36 be 43 1f 26 3e 9a 37 20 3c
       0.30661625 -0.17852436 0.16222863 0.009778881
0000c0 b0 c9 16 be 66 90 5f 3c 34 f2 74 bb f9 b4 dc 3d
       -0.14725375 0.013645267 -0.003737581 0.10776705
0000d0 9b b2 db be ad 79 8f 3e 24 26 06 be 08 d9 41 bc
       -0.42909703 0.2802252 -0.13100487 -0.011831529
0000e0 4e 88 3b bd 88 69 21 3e 19 e8 0c 3e 8c 42 bd 3c
       -0.045784287 0.15762913 0.13760413 0.023103021
0000f0 9a 56 8c bc 9c 2f 8b be 89 d0 27 3d d2 09 8a be
       -0.017131139 -0.2718476 0.04097036 -0.26960617
000100 5f ed 17 3e 0b de 95 3e b1 7f b0 be 96 8d 30 3e
       0.14836644 0.29270968 -0.3447242 0.17241511
000110 4d 39 e9 3d f7 f7 a6 bd 9b d5 19 3e 75 da 9e bd
       0.113878824 -0.08152764 0.1502289 -0.07756511
000120 2d 5c 8f be 10 c1 89 3d 1e e8 6d bb d0 44 a7 be
       -0.28000012 0.06726277 -0.0036301683 -0.32669687
000130 08 36 5e be b2 f1 86 3c 59 e9 98 bc a6 3a 9a bd
       -0.21700299 0.016472671 -0.018665956 -0.075307176
000140 cb 28 9a 3e cc c6 26 3e de b0 38 3e 54 3c 1e be
       0.30109248 0.16286772 0.1803622 -0.15452701
000150 85 6d 6a be 87 a9 10 be f5 c9 94 3d bd 7f 32 bc
       -0.22893341 -0.1412717 0.07265083 -0.010894713
000160 8d 7f f7 3d f0 e9 d8 bd 79 3c e2 3e d1 9f e8 bc
       0.12084875 -0.10591495 0.44186762 -0.028396519
000170 ba 1c 2b be c4 bd 8c 3e d4 0d e1 bd 15 f6 16 be
       -0.16710177 0.2748853 -0.10988966 -0.1474231
000180 3c 09 f7 bd 1a 28 48 3e 31 2b 2a 3d cf c1 e6 3b
       -0.12062308 0.19546548 0.041545097 0.0070421468
000190 63 bc c4 3c a5 87 79 3d 9c 9c b7 3d 2e 4c 54 3e
       0.024015611 0.060920376 0.08965418 0.20732185
0001a0 da c5 37 bf 9e 55 8f 3e a9 aa 18 3e 27 87 9f 3d
       -0.7178627 0.27995008 0.14908852 0.0778945
0001b0 bd 14 da ba 4b d4 cb 3e 09 b6 07 be e1 da 86 be
       -0.001663826 0.39810404 -0.13253035 -0.26338866
0001c0 b1 cf 5f 3d 54 8f 45 3e 9d 21 4d 3e 9e a9 0c be
       0.05464143 0.19292957 0.20032354 -0.13736579
0001d0 15 7b 4b be ce 46 57 3e 61 d3 92 3e 38 0a 1f be
       -0.19871171 0.21023104 0.28676894 -0.15531242
0001e0 06 42 53 3e cf b1 35 bc 99 d5 fc bd e4 62 32 3e
       0.20630655 -0.011089756 -0.12345428 0.17420536
0001f0 da 82 41 bb d1 4a a1 bd 9d 9e a7 be 7b a4 f0 bd
       -0.0029527456 -0.07875598 -0.327382 -0.11750122
000200 ef 28 76 ba f3 f7 d7 3d 0e e7 13 be eb 7d a0 be
       -0.0009390255 0.105453394 -0.14443609 -0.31346068
000210 4c 5e 1e be ed 90 bc 39 22 03 bd 3e 74 07 bb 3b
       -0.15465659 0.00035966132 0.36916453 0.0057076756
000220 9f cb 11 3e 0c a9 b0 3d d6 24 6a bc a6 ba 3d 3e
       0.14237832 0.08625993 -0.014291009 0.18528232
000230 78 c4 92 be 95 c5 2b 3e 33 5e 8b 3d 70 fb bd 3d
       -0.2866552 0.1677459 0.068050765 0.092764735
000240 98 b2 0b bf 70 1f 86 be db 6e 75 bd 91 92 20 3d
       -0.5456939 -0.2619586 -0.059920173 0.039202277
000250 d5 95 21 3e 10 b8 9a 3e 67 96 a1 bb 2f 6a 58 3d
       0.15779813 0.30218554 -0.0049312594 0.05283564
000260 21 3d c9 bd 23 43 77 3e 57 ad 3f 3e 11 6f 6b 3e
       -0.098261125 0.24146704 0.18718468 0.22991587
000270 22 b3 02 3e 2c e9 83 bd fe c2 20 bf 1a 2d 8f 3d
       0.12763646 -0.064409584 -0.62797534 0.06991024
000280 c5 54 c2 bd cb 0c 14 3e 8e da a6 bd b4 ec 94 3e
       -0.09488825 0.14458005 -0.08147155 0.2908684
000290 d1 a7 44 3e 6d aa 02 3e 9f 87 e7 bd d5 e2 f1 3e
       0.19204642 0.12760325 -0.113051645 0.47243372
0002a0 12 54 0f 3e 1b 8b 98 3d 0f f6 c2 bd 4a 1b a1 be
       0.13996914 0.07448407 -0.09519588 -0.31466132
0002b0 00 25 95 3e 35 b1 a7 be cf 8e b6 3d 50 17 9b be
       0.2912979 -0.32752386 0.08913957 -0.30291224
0002c0 a5 d4 f1 bd 34 c2 09 be 50 e1 94 bd 57 dd 99 3e
       -0.11808137 -0.13452989 -0.072695374 0.3005168
0002d0 ef 57 1f 3e 7e 07 81 3d 1b 99 e5 bd f6 fc 52 bd
       0.15560888 0.06300257 -0.11210843 -0.051510774
0002e0 ba 00 cd 3d a7 01 bb be 14 a0 8b 3e 86 aa 9d be
       0.10009904 -0.36524698 0.27270567 -0.30794162
0002f0 4a 44 b4 3e 23 e7 c3 bd 41 81 c7 bc 66 c7 45 be
       0.3520835 -0.0956557 -0.024353625 -0.19314346
000300 99 31 30 3e e4 f4 23 3c d5 a0 21 3e b2 d0 0c 3f
       0.1720642 0.010007117 0.15784009 0.55005944
000310 a8 8b 71 3b fd 87 05 3e a5 9d 27 3d 1b f7 87 3d
       0.0036856923 0.13040157 0.040921826 0.066389285
000320 36 0d f8 bd 8a fd 24 3c fc 18 ec 3d 03 22 68 bc
       -0.12111895 0.010070214 0.11528203 -0.014168265
000330 fd 9d 8d 3e 40 f9 ae 3e 19 a1 63 3c 95 f8 61 3d
       0.27659598 0.34174538 0.013893389 0.055168707
000340 3c eb 43 3e 03 6e 41 3e 13 02 09 bd 05 0c 68 3e
       0.19132704 0.18889622 -0.033449244 0.22660835
000350 11 d1 92 be b3 f1 9a be 7e f1 49 3e 24 27 58 3e
       -0.2867513 -0.30262527 0.19721028 0.21108681
000360 3e 4c 8c 3e fc 06 b2 bd 30 00 c8 bd 35 18 d3 bc
       0.27401918 -0.086927384 -0.09765661 -0.025768379
000370 3e d5 c1 3d 8e 57 d1 bd 54 90 83 3e b1 90 b0 bd
       0.09464501 -0.10221778 0.2569605 -0.08621348
000380 3f ee 9c 3e f1 dc 80 3e 06 96 68 3d 1a a4 94 3e
       0.30650517 0.25168565 0.0567837 0.2903145
000390 9b 4c 86 be 16 32 55 3e e9 a3 f8 bb dc fd 15 3c
       -0.2623032 0.20819888 -0.007587899 0.009154763
0003a0 f1 d1 24 3c 79 1a b1 3c a3 ae b0 3e 7d 38 54 3e
       0.01005982 0.021619068 0.34508237 0.20724674
0003b0 1d bf a6 3e 0a c0 38 be 8d 36 a5 bd 3b fe 76 be
       0.32567683 -0.18042007 -0.08067045 -0.24120419
0003c0 a5 97 07 bd 22 0a b3 be e7 8e ab 3e 3a 46 1c be
       -0.033103604 -0.34968668 0.33507463 -0.15261164
0003d0 ba ce 71 3d ea 77 9d bd c0 77 7c 3d da 3a 3d be
       0.05903504 -0.076888874 0.06163764 -0.18479481
0003e0 21 f9 a1 3e b0 c4 20 be 4a 1c 7b be 81 7d c3 bd
       0.31635383 -0.1570003 -0.2452251 -0.09545422
0003f0 9f aa 7e bd c9 52 aa 3d 70 80 13 bd 24 6a b4 be
       -0.062174436 0.08316571 -0.03601116 -0.3523723

actor.2.bias f4 [64]
000000 0b 0f 97 3a 9e ad c8 bb 92 97 82 3c 4d 6a d2 bc
       0.0011524869 -0.0061242124 0.015941415 -0.025685454
000010 a4 ec 56 3c 34 e7 82 3d 02 f2 14 3d 83 cd 16 bc
       0.013117943 0.06391755 0.03636361 -0.009204271
000020 d4 24 35 3c de 02 82 bc 72 b9 54 3c 3c 50 32 3d
       0.011056144 -0.015870508 0.012983667 0.04353355
000030 1e b2 35 3c f9 63 1c 3d c7 4b db bc 7e ac 50 3d
       0.01108983 0.03818128 -0.026769532 0.05094575
000040 de 51 44 bc 13 fb 66 ba 3b 59 cd 3d a1 22 80 3c
       -0.011982409 -0.00088112167 0.10026785 0.015641512
000050 f4 5f e1 3c a6 ea d1 bc a1 08 6d bd 59 eb 8c 3c
       0.027511574 -0.025624584 -0.057869557 0.017202066
000060 10 67 8c 3a 34 71 17 3d be ab 8b 3d e3 76 21 bc
       0.0010711867 0.036973193 0.068198666 -0.009855005
000070 08 64 aa 3c ed e6 d1 bc f6 bc 96 bb 44 8d 05 3c
       0.020799652 -0.02562281 -0.0046001626 0.008151356
000080 07 6c d7 3b 31 12 cb 3c 2c 70 72 3c 28 17 3a bd
       0.006574157 0.024788948 0.014797252 -0.04543224
000090 4f 0a 48 3d d8 da 13 bd 74 67 0e bc 46 c7 4d bc
       0.048837956 -0.036097378 -0.008691657 -0.0125597175
0000a0 66 14 8b bd 42 e8 33 bb f2 23 cf bc e7 5a 93 3b
       -0.06791 -0.002745167 -0.025285695 0.0044969204
0000b0 14 85 a3 bb 46 b2 7e bd 94 d7 47 bd ac 1a aa bc
       -0.0049902294 -0.062181734 -0.048789576 -0.020764671
0000c0 d3 85 e8 bc 41 fb a9 bc eb b0 97 3b 7d 49 9b bd
       -0.028384125 -0.02074969 0.0046292446 -0.07582376
0000d0 c1 81 91 bc 3a 41 f2 bc 44 9d 9e 3c 9e e7 19 bd
       -0.017762067 -0.029572118 0.0193621 -0.037574403
0000e0 52 2c 63 3c 93 6e d1 3c 22 eb 89 3c b3 4d 1b 3c
       0.013865547 0.025565421 0.016835753 0.009478974
0000f0 d7 cb d3 bc ec 8f 39 3d 28 f4 35 3d b6 7a bb 3c
       -0.025854034 0.04530327 0.0444223 0.022885662

actor.4.weight f4 [7, 64]
000000 51 2f 49 bd 0b f0 aa 3c 65 96 05 3d 0a 35 d7 bd
       -0.04911739 0.020866415 0.03261413 -0.10508163
000010 f9 c9 8d be de d5 91 3d 81 15 37 bc 71 97 22 3d
       -0.27693155 0.0712087 -0.0111745605 0.039695207
000020 47 de 4e 3e fb 39 16 3e 31 e5 1c 3d e3 f5 1e be
       0.2020198 0.14670555 0.03830451 -0.15523486
000030 45 0d 38 3e 2e 87 14 be b1 34 88 be 32 6f 66 3d
       0.17973812 -0.14504692 -0.266027 0.056258388
000040 29 1f 85 3e a1 2b 3c bd fd 6e aa 3d 07 91 12 be
       0.26000336 -0.045940045 0.083219506 -0.14313136
000050 17 6c b2 3e b6 50 fb bb cd 1a 7e 3b 50 39 f1 bd
       0.3484809 -0.0076695336 0.0038773299 -0.117785096
000060 2a 4e 1e bd b7 a8 8d 3d 27 aa 84 3e 3e 84 89 3e
       -0.03864876 0.069169454 0.25911066 0.26858705
000070 51 c9 4c 3d 1d 22 b1 3d 23 86 39 bd ff bd e0 bd
       0.049996678 0.08649085 -0.04529394 -0.10973739
000080 19 93 23 3e 16 f8 0e 3e b5 b1 43 bc ab 4c 94 bc
       0.15974082 0.13961825 -0.011944224 -0.018102964
000090 25 2e b0 be 9b 32 9f bd 9e ce 9b 3c f9 2c 2e 3e
       -0.34410205 -0.07773324 0.019019421 0.17009343
0000a0 25 ac 67 3e 1e 99 a4 be 8b 09 85 be a5 6e 64 bd
       0.22624262 -0.3214807 -0.25983843 -0.05576958
0000b0 a4 65 5c 3d a0 09 6a bd 9f db 79 bd 2b 02 63 3d
       0.05380787 -0.057138085 -0.061000463 0.05542199
0000c0 c3 82 66 3e f8 c2 ba 3d 32 36 a3 3c 80 3c 62 3e
       0.22510819 0.091192186 0.019923303 0.22093391
0000d0 f5 cd e7 bd 09 27 83 bd 90 3f e1 bd 42 4b 49 be
       -0.1131858 -0.0640393 -0.10998452 -0.19657615
0000e0 ef 57 70 3d f9 b9 b5 bd 00 8d 87 be d4 4d f4 bc
       0.05867761 -0.08873362 -0.26474762 -0.029822268
0000f0 1e a3 de 3c d2 cb 94 bd 56 8c 26 3d 3b 7b 7c 3d
       0.02717739 -0.07265438 0.04066118 0.06164096
000100 59 60 87 3e 92 67 1d be 06 8c 6c 3e 85 a5 e5 bd
       0.26440695 -0.1537154 0.2310029 -0.11213211
000110 ec bf 60 bc 6b 32 c3 3d 7c e1 02 3e 49 10 82 be
       -0.013717633 0.09531101 0.12781328 -0.2540305
000120 74 a5 be 3d 93 43 99 bc 20 6c 92 3d 03 90 01 3e
       0.093089014 -0.01870898 0.071495295 0.12652592
000130 0d da 10 be e2 93 0c 3e 0a 5b bb 3d ed 7a f2 3d
       -0.1414568 0.13728288 0.09148224 0.118398525
000140 10 df c6 bc 57 c1 f8 3d 6c 42 33 3d 15 26 c4 3d
       -0.024276286 0.12146252 0.043764517 0.09577576
000150 72 a8 02 3e b0 73 ff bb 92 ac 97 be ba 51 67 3e
       0.1275957 -0.0077957734 -0.29623848 0.2258977
000160 a9 6b 05 3e 69 e5 8b bd f0 df 74 3e 6a 7b 68 3d
       0.1302935 -0.06830866 0.2391355 0.05675832
000170 72 8d 8b 3d 33 7e 3e 3d d3 7d 17 3e 22 e5 e5 3d
       0.06814088 0.04650707 0.14794092 0.11225344
000180 d4 72 b7 bd 89 1b 8e be 99 2a bd bd 3d 56 10 3e
       -0.089574486 -0.27755383 -0.092366405 0.14095397
000190 63 a4 5b 3d b4 a1 9c 3d 91 5f 71 be 56 c4 45 be
       0.05362357 0.0764803 -0.23571612 -0.19313177
0001a0 69 aa 3a be bc 10 55 3d ad 3b 5e 3d 41 51 a7 bd
       -0.18229069 0.052017912 0.05425613 -0.08169795
0001b0 c7 39 b9 3c d5 64 71 3d 05 bb 47 3e c0 f1 b2 be
       0.022610558 0.05893405 0.19504936 -0.34950066
0001c0 06 3b 14 be fc 2b b0 3d e8 2d c7 be 12 8a 29 be
       -0.1447564 0.08602139 -0.3890221 -0.16556576
0001d0 bb 31 99 be 25 2b a5 bd 5e 9c 44 3e 6e 37 0e 3d
       -0.29920754 -0.0806487 0.19200274 0.03472083
0001e0 97 76 05 3e 58 30 bf 3d b2 a6 2c 3d 94 20 4e 3e
       0.1303352 0.09335393 0.04215116 0.20129615
0001f0 64 df c6 bd 02 7d 9b 3e f5 6e ed bd 83 a0 15 bd
       -0.09710577 0.3036881 -0.11593429 -0.03653003
000200 fb 5a 31 be 34 82 17 3e a0 c1 31 be 73 e2 44 3e
       -0.17319863 0.14795762 -0.17359018 0.19227009
000210 cd ad 21 3c 40 15 e9 3d e9 d6 5c be 58 e8 cb 3d
       0.0098680975 0.11381006 -0.21566357 0.099564254
000220 b3 8b 3e be 7a eb 65 be 94 20 ca bc b7 31 2c 3e
       -0.18607979 -0.22453108 -0.024673738 0.1681584
000230 1a 02 22 be 02 33 db 3d 35 8b ad 3d e3 c2 7a be
       -0.15821114 0.10703088 0.08473817 -0.24488406
000240 1a c0 27 be f1 20 b7 bd 20 37 ca bd fd 43 5c 3d
       -0.16381875 -0.0894183 -0.098737955 0.053775776
000250 4e 8e 0c be f9 da 9f bd f0 5c 45 3e 9f 15 6a 3e
       -0.1372616 -0.078054376 0.19273734 0.2285981
000260 59 b4 36 bd 4f f8 49 3e 5e f7 4c be 9b 9c 71 3d
       -0.044605587 0.19723628 -0.20016238 0.05898724
000270 2a 5d 6c be a2 5a 08 be 41 2f 31 3c de bb 70 3e
       -0.23082414 -0.13315824 0.010814489 0.23509166
000280 2a b8 96 be b8 cb 2a 3e c0 08 f1 3d 61 e8 1b 3d
       -0.2943738 0.16679275 0.11769247 0.03806341
000290 4b 0c aa 3d 09 28 91 bd 2c 79 c9 3d 3c 0b 26 3c
       0.08303126 -0.07087714 0.09837565 0.010134514
0002a0 11 06 01 be 11 ad 8d 3d b9 17 86 3d 52 44 34 3e
       -0.1259997 0.069177754 0.065474935 0.17604187
0002b0 ca 7b 3e be 52 55 95 bd 9b 7e dd bd 65 2e 5c 3e
       -0.1860191 -0.07291664 -0.10815164 0.21502073
0002c0 0c c1 0e 3e 61 fd 3b bd 67 dc 63 3e 90 51 02 be
       0.13940829 -0.045895938 0.22252046 -0.12726426
0002d0 cf 26 b1 3d ab b8 47 3e 22 e3 0a 3e 66 12 8a 3e
       0.0864998 0.19504039 0.13563207 0.26967162
0002e0 90 52 2c be ae 65 02 3e 98 60 17 3e fa 40 38 bd
       -0.1682837 0.127341 0.14782941 -0.04498384
0002f0 73 23 33 bd 56 e0 46 be 76 b3 9f 3d 19 a3 96 3d
       -0.04373498 -0.19421515 0.07797901 0.07355327
000300 ed 26 f3 bb 1a 31 98 3d 51 19 bc 3a 39 96 fb 3d
       -0.007420412 0.074312404 0.0014350807 0.12284512
000310 f4 5b bc 3d c0 86 7a be 95 8f 64 bc 69 60 4e 3b
       0.09197226 -0.24465466 -0.013950248 0.003149057
000320 89 3f 8d bd dd 1e 97 3d cd f8 d0 bd 6a ff 9b 3d
       -0.06896884 0.073789336 -0.10203705 0.07617076
000330 81 31 3b 3e d3 3a 34 be 94 df f1 bd 40 c1 6f 3c
       0.18280603 -0.17600565 -0.11810222 0.014633477
000340 42 d1 d7 3d f8 da 0e be 03 01 53 bd 28 26 a4 3d
       0.1053796 -0.13950717 -0.051514637 0.0801509
000350 1c 99 cb 3b 35 0b 32 bd d6 7b 60 bd 81 d6 29 bd
       0.0062133204 -0.04346772 -0.0548056 -0.041464332
000360 f3 f5 38 bd b0 52 6a be df 5b 0a 3e 73 14 ac bd
       -0.04515643 -0.22883105 0.13511609 -0.08402338
000370 b7 99 37 bd dc ff 34 bd 1f b4 5f bd 96 df 49 be
       -0.04482433 -0.04418932 -0.054615136 -0.19714198
000380 b1 55 25 3e 89 8e ed bd fb 7f ad 3d 79 6b ad bd
       0.1614597 -0.11599452 0.08471676 -0.084677644
000390 fa 3b 55 3d 79 8f eb 3b 9a 00 6e 3c df bd 01 bc
       0.05205915 0.007188734 0.014526511 -0.007918804
0003a0 5d 25 c5 bd bd 33 09 3d 14 99 76 3d b8 39 92 3d
       -0.09626267 0.033496607 0.06020458 0.07139915
0003b0 10 1c 9e 3d 76 d3 fb bc 3b 8e 90 bd ca 2b 4f be
       0.07720196 -0.03074048 -0.07058378 -0.20231548
0003c0 9e e6 50 bd 77 33 0a be 38 e9 3d be ed 41 c5 bd
       -0.051001184 -0.13496195 -0.18545997 -0.09631715
0003d0 f5 61 95 3c e7 4d 92 3d 7e 9d 5d be 17 7e 46 be
       0.018235186 0.07143765 -0.2164211 -0.19384037
0003e0 6e 15 bc bd b4 31 c8 3d ce 7c 9f 3d f6 15 03 bd
       -0.09183775 0.09775105 0.077874765 -0.032003365
0003f0 62 94 5a 3e 2f 48 03 3e 16 cb b7 3b 44 79 ef 3c
       0.21345666 0.12820505 0.0056089265 0.029232629

actor.4.bias f4 [7]
000000 a5 7f fd ba 63 ec 44 3c 98 a7 03 3d fc ec bd 3c
       -0.0019340409 0.01201925 0.03214225 0.023184292
000010 15 f4 7f 3c 49 b7 e8 3a f9 f1 ee bd
       0.015622159 0.0017754819 -0.11667246
